model.pth (torch, 44660 bytes, 5 tensors)

weight f4 [128, 14]
00000000: 483c 513e 2027 633e b23a 80bd c366 7b3e
00000010: 67da 6fbd 93e6 5c3d 843d 05be 92b9 203e
00000020: b741 713e acc6 48be b1e0 6d3e 38e2 4c3d
00000030: a331 4a3e 9141 143d 2478 54bc dd33 943e
00000040: 80b3 9a3e 026a 1bbe 306a 073f 7a3c 70be
00000050: bf61 78be a98e 133f 162a 013f e4c3 343f
00000060: fad0 ca3e 8b82 ba3e 29e7 cd3e d525 e73e
00000070: 86c4 febd 64e7 503d b38e a73e 48db d9be
00000080: 673a 593f edc4 86be 4a8d 5bbe c3c0 423f
00000090: ab8c 243f a96e 3b3f 84cd 1f3f 5100 c83e
000000a0: de44 093f a411 073f c44e c2bc 55d8 0d3f
000000b0: 5217 7d3e b2f9 99be 8a95 4b3f 8bf9 7bbe
000000c0: b1dd ab3c 811b dc3e 9eb3 aa3e 4413 d23e
000000d0: 8e29 c63e 6819 313f c825 0a3f b03f 353f
000000e0: c395 f7bd 5d9b b43e 5698 933e 51a4 e6be
000000f0: cbc0 383f 12bd 0abf 77e9 c7bd 4b8a 123f
00000100: 5ff3 403f a9d8 063f 90ee 623f 4ba6 c23e
00000110: a95c ba3e bf69 023f 16b8 bc3d 3c9e d63e
00000120: 10d7 b33e aa4f d6be fe45 cb3e 1860 04bf
00000130: bd65 9cbe 8744 393f fb7a 373f b2e1 413f
00000140: f924 f43e 3d50 9f3e e3da 1f3f 970c 033f
00000150: a99e 9ebc e540 903e 0e0f 743e 14a2 e2be
00000160: a4ea 0b3f 4076 84be c310 cebd 038f 123f
00000170: 0a81 4e3f a704 3e3f 2cce e43e a122 c03e
00000180: 2cea 3f3f df06 0e3f 7f0b c2bd 4a67 84be
00000190: cfb9 1cbe f4ba 883d 427e 10bd 3fa8 46be
000001a0: ba6c cd3b 53f1 3abe 752f 68be f0b3 16be
000001b0: 2c86 6fbe 7642 2ebe c3c8 883e 05c3 4e3d
000001c0: e9ab a83d bb40 7fbe 2fbe 33be 6030 b6bd
000001d0: 062e 2b3d 1bd0 70be bbd6 ebbd 47d7 23be
000001e0: 2d28 423a cbab cbbd 68b7 97bc 5e73 39be
000001f0: 7cd9 3bbe aca9 1fbe 38dd cbbe bdff 193e
00000200: 7522 823e eb14 d7be ee65 713f f3b9 bbbe
00000210: a931 01bf ce53 5e3f 5393 1e3f 6927 003f
00000220: a128 ed3e 4324 963e ed71 1d3f 010e 213f
00000230: 1627 f6bd 224a e93d 4549 833e 6579 f3be
00000240: bb09 213f a99d a6be d477 79bd 7a1e 5a3f
00000250: 3111 633f 6aea af3e df2e 343f 606b cb3e
00000260: d9d7 ef3e d689 e13e 84c3 3dbd c6c4 493e
00000270: 633a 493e 0f29 84be 19a6 573f ac09 15bf
00000280: e6f3 a4bc ebac 483f 0fbb 443f 321f d03e
00000290: f2a6 563f b586 0e3f ae09 e83e 3078 753f
000002a0: ff0f 743d 0f6b 17be 9084 0abe f61c 51bc
000002b0: 50cf 183e e0dd 8bbd 0227 1cbe bb6f bbbd
000002c0: c274 4cbe 0134 c33d fad5 533e 18d3 80be
000002d0: cc3e 7e3d e760 0d3e b624 2bbe edba 823e
000002e0: 2df8 563e 2b72 05be 3a6d 4c3f f466 d5be
000002f0: 54a6 85be 54f7 2f3f 9d7c 1e3f 385f fe3e
00000300: 497b 543f 9f24 433f 8c10 fb3e 9372 1a3f
00000310: b43b 16be f6b6 9c3e 6875 1c3e 1933 00be
00000320: d0a1 d33e b351 d1be 200f c43d ff7a 363f
00000330: 51df 193f c3b9 bb3e efa3 e33e fc55 7c3e
00000340: d14d c63e b017 343f 5d80 2e3e e4b5 fc3d
00000350: f1e9 71be 0394 24be 20c3 2cbd b45e 843e
00000360: 5b5b 1e3d 76bf 8dbd 8d72 e23d d579 d0bd
00000370: 5523 31be 94c0 473e a9e1 f8bd 8c73 5bbd
00000380: 66d9 19bf a677 0f3f 848e 683e dece 9abe
00000390: bcb9 0f3f 1b45 3fbf 0480 06bf b76b 6b3f
000003a0: 1860 5b3f 447f 5c3f b371 5c3f ac38 283f
000003b0: 903b 113f 1465 053f 87db 08bf 2e54 2c3e
000003c0: ad53 2b3e 49f6 00bf 720d 3c3f d777 1cbf
000003d0: 72db a7be 1ba3 123f 122a 183f 11a8 433f
000003e0: 4d75 2e3f d009 4b3f c509 063f 20a1 113f
000003f0: e725 41bd dba9 04be 1a75 a7bd d944 82be
0.20433152 0.22182894 -0.06261195 0.24550919 -0.058557894 0.05393083 -0.13011748 0.1569579
0.23560224 -0.19607037 0.23230244 0.050020427 0.19745497 0.03619534 -0.012968097 0.2894582
0.30215073 -0.15177158 0.52896404 -0.2346057 -0.24256037 0.5763956 0.50454843 0.70611405
0.3961256 0.3642772 0.40215424 0.4514605 -0.124398276 0.05100192 0.32726058 -0.4255011
0.8485474 -0.26322117 -0.21440616 0.7607538 0.6427714 0.7321573 0.62422967 0.3906274
0.5362071 0.5276129 -0.023719199 0.5540822 0.24715927 -0.30073315 0.79525054 -0.24606912
0.020979734 0.42989734 0.33340162 0.41030324 0.3870358 0.6917939 0.539639 0.70800304
-0.12089112 0.35274783 0.2882716 -0.45047238 0.7216918 -0.5419475 -0.09761327 0.5724227
0.75371355 0.5267435 0.8864527 0.38017496 0.3639882 0.50942606 0.09214799 0.41917598
0.35125017 -0.41857654 0.39701837 -0.5170913 -0.3054637 0.7237019 0.7167203 0.7573501
0.47684458 0.31115904 0.6244337 0.51191086 -0.019362764 0.2817451 0.23833868 -0.4426428
0.5465491 -0.25871468 -0.10061791 0.5724947 0.8066565 0.7422585 0.44688547 0.3752642
0.7496669 0.55479234 -0.09474849 -0.25860053 -0.15305255 0.066762835 -0.03527666 -0.19400118
0.0062690647 -0.1825612 -0.22674353 -0.14717078 -0.23391026 -0.1701754 0.2671567 0.050478954
0.08235914 -0.24927036 -0.17553018 -0.088959455 0.04179194 -0.23516886 -0.11515566 -0.1600009
0.00074064994 -0.09944876 -0.018520072 -0.18110415 -0.18344682 -0.15592068 -0.39817214 0.15038963
0.25416914 -0.42008147 0.9429616 -0.36665305 -0.504664 0.86846626 0.6194355 0.50060135
0.4632006 0.2932454 0.6150196 0.62911993 -0.12019174 0.11391093 0.25641838 -0.47553554
0.6290547 -0.3254216 -0.060905293 0.85202754 0.88698107 0.3435853 0.7038402 0.39730358
0.46844366 0.44050473 -0.046329036 0.1970397 0.19651179 -0.25812575 0.8423782 -0.58217883
-0.020135831 0.7838885 0.7684793 0.406488 0.8384849 0.55674297 0.45319885 0.95886517
0.059585568 -0.14786933 -0.13527131 -0.0127632525 0.14922833 -0.06829429 -0.15249255 -0.0915217
-0.19966415 0.09531403 0.20687094 -0.25161052 0.062071607 0.13806497 -0.16713223 0.25533238
0.20993109 -0.13031833 0.79854167 -0.4168011 -0.2610346 0.6873677 0.61908895 0.4968202
0.8300062 0.76227754 0.49036062 0.60331076 -0.14671212 0.30608338 0.15279162 -0.12519492
0.4133439 -0.40882644 0.09573197 0.7128143 0.6010638 0.36665162 0.4446101 0.24642175
0.38731244 0.70348644 0.17041154 0.123393804 -0.23624398 -0.16072087 -0.042178273 0.25853503
0.038661342 -0.06921284 0.11057005 -0.101794876 -0.17298634 0.19507056 -0.12152416 -0.05357699
-0.6009735 0.56041944 0.22710615 -0.30235952 0.56142783 -0.7471482 -0.52539086 0.91961235
0.856935 0.8613169 0.8611099 0.65711474 0.5673151 0.5210736 -0.5345997 0.16828987
0.16731139 -0.503758 0.73458016 -0.6112036 -0.3278461 0.5728013 0.59439194 0.76428324
0.68147737 0.7931185 0.5235866 0.5688648 -0.047155287 -0.1295542 -0.08176632 -0.25443152

bias f4 [128]
00000000: 8898 78be 7381 443e 6864 93bd ffed 30be
00000010: 6d93 36be b71f 83be bef7 0b3e b95f 6dbd
00000020: eade 19be a301 bebe 3c1b 453d 8ddc 3ebe
00000030: 4303 e6bc 6a4a 29be 8a58 38be a4bc 423d
00000040: 5e2d 5c3c bcb5 a2be f4cc 513c 4522 50be
00000050: 5e53 00be 6139 703e d3c8 e5bc 84d1 833e
00000060: ddcb 3fbd d9ec 85be e767 7ebe 61f7 453e
00000070: 69f4 7abe 949f 0f3e ce0f 883d fa86 a13d
00000080: 89db 5e3d 0d9f edbd 2757 293e c5ad 9fbe
00000090: a994 c0bd 1ccb d43d f428 f3bc 664d 89bd
000000a0: 1027 88be 391c 27be 9e38 14bd 2c3f 0bbc
000000b0: e926 14bc 5ac9 d5bc 2895 73bd eb9f 0bbe
000000c0: 9c81 bcbd 7673 393e 7c90 1a3e 74d5 3abe
000000d0: c1cb 95be 6414 4b3d a0ec 0f3e 1cbd 823d
000000e0: 05c9 153e 4c3c 85be 849a ab3d 5677 88be
000000f0: c306 1a3e 4867 063e e030 943d 1630 8d3d
00000100: 0f8b 3abe d7f8 96be f991 83be 75d2 2b3e
00000110: 307a 9a3a 0fb9 7dbe 6384 e43c 74b4 793e
00000120: f94a adbe a283 133e 179d 2e3c 0ea9 cb3c
00000130: 5840 763e 7dd6 773e 79fe d1bb 963d 583e
00000140: 43b5 bf3d 5a5f 323d 5590 70be af78 4c3d
00000150: eca6 73be 921e 773c 5fa4 1fbd fcbe c43b
00000160: f29d 58be bee6 25be ac48 4a3e d5b8 a33d
00000170: 0b95 9f3d 1219 a3bd ec80 3cbd f52e d1bd
00000180: 7034 3c3e e748 ecbd e258 da3d 93b2 3c3e
00000190: a54a 7abe e6ea d53a eb54 d1bd 3f4b 17be
000001a0: b60c 9d3d 3187 97be 9798 433e d0e5 54be
000001b0: fc41 fe3c b76e 97be abb6 86be 8658 953c
000001c0: 3cc6 9e3d fa4a 853d 03b6 60be a682 f23c
000001d0: b4b2 4bbe 1e57 38bd dd1b c2be af54 07be
000001e0: 083f e73d bc1d 17bf bd4a 92be cb64 473d
000001f0: 0811 163d 8534 48bd 1561 5e3d e0c9 82be
-0.24276936 0.19190006 -0.07196885 -0.17278288 -0.17829676 -0.25610134 0.13668725 -0.057952616
-0.15026441 -0.37110624 0.048121676 -0.18638821 -0.028077727 -0.16532293 -0.18002525 0.047543183
0.013438551 -0.31779277 0.012805212 -0.20325573 -0.12531802 0.23459388 -0.028049862 0.25745785
-0.04682528 -0.26157263 -0.24844323 0.19332649 -0.24507298 0.14025718 0.066436395 0.07887073
0.054408584 -0.11602602 0.16537152 -0.31187263 -0.09403355 0.103903025 -0.029682614 -0.06704216
-0.26592302 -0.1631936 -0.036186807 -0.008498948 -0.00904248 -0.026096988 -0.05946842 -0.13635223
-0.092044085 0.18110451 0.15094179 -0.18245488 -0.29257014 0.049579993 0.14055109 0.06383726
0.14627464 -0.26022565 0.08379081 -0.26653546 0.15041642 0.13125336 0.07235885 0.06893937
-0.18217109 -0.29486725 -0.25697306 0.16779502 0.0011785682 -0.24777626 0.027895158 0.24385244
-0.33846262 0.14405683 0.01065757 0.024860885 0.24047983 0.24202915 -0.0064085093 0.21117243
0.09360745 0.043547966 -0.23492558 0.04991978 -0.23794144 0.015082972 -0.038975116 0.0060042124
-0.21154001 -0.16201302 0.19754285 0.07994238 0.077920996 -0.07963766 -0.046021387 -0.102140345
0.18379378 -0.115373425 0.10661484 0.18427496 -0.24442537 0.0016320616 -0.10221275 -0.14774798
0.0766844 -0.2959533 0.19101177 -0.20790792 0.031037323 -0.29576656 -0.2631124 0.018230688
0.07752654 0.06508441 -0.21944432 0.029603314 -0.19892389 -0.045004956 -0.37911883 -0.13215898
0.11291319 -0.59029746 -0.28572646 0.048680108 0.036637336 -0.04887821 0.054291803 -0.25544643

weight f4 [64, 128]
00000000: 59c9 5bbd c14e 87bd 61c4 86bc c1c9 b8bc
00000010: a302 603d f99f a2bb 983c e73c 9572 16bd
00000020: 6dd7 923d 4a9a 983d 841d a2bd 6d16 babc
00000030: 2d98 99bd c3cd 193d 4f27 9ebd 192d 2bbd
00000040: 9ade b43d dddb acbd 908e 853d 76ad f43b
00000050: d5bf 903d 13bb 37bd 1dcc 6d3d adb9 2e3c
00000060: 1ac3 de3b 611a 773d 5510 acbd 60cd 91bd
00000070: 65d2 ae3d 2967 59bd e97a 82bd 309d 8dbb
00000080: 68c7 e7bc ee1f 46bc 888f 72bd 61a1 023d
00000090: 89c3 9bbd a294 ea3b 8c43 533d 111f 8b3c
000000a0: 846a 403c 21d0 533c 6b1e d4bc 7aef 89bc
000000b0: 57ab 18bd 4491 74bd 00af 3fbd d6f2 b23d
000000c0: ab5b 72bc 33a4 fd3c 8b5e 7a3d e240 e2bb
000000d0: 76c4 42bd 9a4b 75bd 5260 05bd 8c39 013d
000000e0: 6d72 98bd a5d0 30bc f4b6 093d 80af 933d
000000f0: 9fe5 d93c c832 8f3c 2ad9 773d 2e4b 273d
00000100: 1df7 f43c 687f e0bc c128 91bd f866 9cbc
00000110: 4952 83bc 67b2 d43b b444 1fbc 3a5e 123d
00000120: c397 703d 20c7 12bd 1ac3 abbd 57bf 39bd
00000130: 1a3a 2dbd d337 4d3d de87 69bd 8e35 08bc
00000140: d675 99bc a3bb 5bbd 4d1b 243d 28cf 16bd
00000150: 18d5 95bb 3a8b 7ebd 7f0f 12bc 20c3 4d3c
00000160: c9b7 6bbb 6146 07bd 8c1c d73c 4f9b bbbc
00000170: beb6 48bd 547d 85bd 8761 99bc 4c01 abbd
00000180: ea3f 963d b7f4 2cbd 1109 16bd b5dd 053c
00000190: 75b4 bb3c cc8c 08bc e75d 783d e10c 53bd
000001a0: 6abf 013d 0307 51b9 0641 93bd 3a37 0cbd
000001b0: b544 b83c 3d54 8a3c 25a0 833d 8a33 723d
000001c0: d276 45bd e799 1abd cc88 99bc 9caf 81bd
000001d0: 587e c3bc 6521 94bd d5b2 093d f914 803d
000001e0: c651 e53b 9796 81bd 5f16 89bd fcf0 0cbd
000001f0: b099 d23c 2a4b 0d3b 35a7 833c 7a9b aa3d
00000200: 5e25 283d e17c aaba 860a 1cbd caf8 af3c
00000210: 7093 473c e57a ccbd fd4f 94bd 036f 423b
00000220: 705f 093d 805f bb3c d9f1 94bd 1abb dcbd
00000230: 96df 96bb 1135 f7bc cd30 ab3b 3c20 c7bc
00000240: a073 423d 47df 68bc 5630 843d bc17 7cbd
00000250: 18d4 103d 768e 2c3c 0c15 84bd d97a 333d
00000260: 6520 b2bd e949 523d 016b 52bc df0b 41bc
00000270: 8b7b a73c ef6d f03b 3e30 1b3d 8955 663d
00000280: 4b96 b7bd 5122 1c3d 4dd8 58bc 621b 26bd
00000290: 50be 913c 1f67 523d 7a97 8bbd 8f92 a3bd
000002a0: 336b 0a3d b709 2abd 1052 0a3c db59 55bc
000002b0: ee4d c73c 19d1 403d 5a96 84bd 27af 2fbd
000002c0: a99f 313d 8194 9e3b 9b61 1fbc 46c4 c8bd
000002d0: 1583 5f3d 205f 5bbb ae5d 85bc fc9c 14bd
000002e0: 310d 1abd abc0 9c3c 093f b7bc c65d 633d
000002f0: b737 a7bb 2a69 06bd 75e7 1d3d b155 b7bc
00000300: b2b7 c1bc c882 183c e8c1 8e3d 72b1 b43c
00000310: 52cc 293d 9177 163d 71d6 a13b dfc0 fb3c
00000320: 1bd2 073c 070f 37bc ed0b 5d3d 351b a73d
00000330: b4e1 003d 34a3 90bb 491d 723d 1de4 8cbd
00000340: 5d91 493d 3dd1 3f3d 647a 683d 2e8a debb
00000350: 3ca0 b0bd 9831 2f3d e8a4 70bd 8a83 be3c
00000360: 6cdd f33c ce2a a9bd e135 c03b 21bf 53bd
00000370: 46dd 2d3d b382 66bd a5d1 5b3d 18a4 0e3d
00000380: fcbd 473d e2c7 ad3d 2c56 e5bb 9012 a4bd
00000390: 2e39 813d ea92 043c 0802 97bc e46f acbd
000003a0: 668a 24bd a9a4 6dbd 0f8f 873d a2a7 2e3d
000003b0: 7289 3c3d e7cf 233d 9442 99bd 0e7c 1bbd
000003c0: c2a9 62bd f4d2 68bd 49e9 8c3d 7a04 f63c
000003d0: c5ba 4e3d 5bcf cabc e77e cabd 3759 3dbd
000003e0: ecfb 2b3d af29 0d3d 70ae e63b 5664 d4bc
000003f0: 4df5 a8bd 7588 42bd 26ce d53c 997b 64bd
-0.053658817 -0.06606818 -0.016451063 -0.022557141 0.054690015 -0.004962918 0.028227136 -0.036730368
0.071699955 0.07451303 -0.07915786 -0.022715772 -0.07499728 0.037549745 -0.07722341 -0.041791055
0.088315204 -0.08440373 0.06521332 0.007466967 0.07067839 -0.044856142 0.058055986 0.010664386
0.0067981603 0.06032789 -0.084015526 -0.0711925 0.08536223 -0.053076897 -0.063710995 -0.0043217167
-0.028293326 -0.012092574 -0.059218913 0.031892184 -0.07605655 0.0071588317 0.05157809 0.016982587
0.011744145 0.01292804 -0.02589341 -0.016837824 -0.037272777 -0.05970885 -0.046797752 0.087377235
-0.014792363 0.030962085 0.06112532 -0.0069047073 -0.04755064 -0.059886552 -0.03256256 0.03154902
-0.074437 -0.010791932 0.033621743 0.07211208 0.02659875 0.01748027 0.06050984 0.04084318
0.029902989 -0.027404502 -0.07087851 -0.019092068 -0.016030448 0.006490994 -0.00972097 0.035734393
0.05873848 -0.03583443 -0.08386822 -0.04534849 -0.042291738 0.050102066 -0.05701434 -0.00831355
-0.018732946 -0.05364574 0.0400651 -0.036818653 -0.004572522 -0.062144496 -0.008914827 0.012558728
-0.0035967699 -0.033026103 0.02625873 -0.022901205 -0.0490024 -0.06518045 -0.018723262 -0.08349857
0.073364094 -0.042225566 -0.03662974 0.008170535 0.022913197 -0.00833435 0.060636427 -0.051525954
0.031676687 -0.00019934405 -0.071901366 -0.034232356 0.0224937 0.016885871 0.064270295 0.059131183
-0.04820902 -0.03774443 -0.018741988 -0.06332323 -0.023863956 -0.07232932 0.033617813 0.06254
0.0069982735 -0.06327551 -0.0669372 -0.034409508 0.02570805 0.0021559694 0.016070941 0.08330436
0.04105126 -0.0013007188 -0.038095973 0.021480937 0.012181148 -0.09984378 -0.07241819 0.002966822
0.033538282 0.022872686 -0.07272691 -0.10777874 -0.0046042902 -0.030176671 0.0052243234 -0.024307363
0.04747355 -0.01421339 0.06454532 -0.061546072 0.03535852 0.010532012 -0.06449327 0.04381833
-0.08697585 0.051340017 -0.0128428945 -0.011782615 0.020444652 0.007337324 0.037887804 0.056233916
-0.08964213 0.038118664 -0.013235164 -0.040553458 0.017790943 0.051367875 -0.06816001 -0.07986938
0.03379364 -0.04151317 0.008442417 -0.0130219115 0.024329152 0.04707441 -0.0647399 -0.042891648
0.043365154 0.0048394804 -0.009727861 -0.09803061 0.05456837 -0.0033473447 -0.016280022 -0.036282524
-0.037610237 0.01913484 -0.022368925 0.05550935 -0.0051030773 -0.032815136 0.038550813 -0.022379728
-0.023647163 0.009308524 0.069705784 0.022057269 0.04145462 0.03673512 0.0049388935 0.030731617
0.008289839 -0.011173016 0.05396645 0.08159486 0.031465247 -0.0044139866 0.05910996 -0.06879447
0.049210895 0.046830405 0.056757346 -0.0067913746 -0.08624312 0.042771906 -0.058751017 0.023256082
0.029768668 -0.082601175 0.005865798 -0.051695947 0.04244735 -0.05627699 0.05366673 0.03482446
0.048765168 0.0848539 -0.006998798 -0.08011353 0.06309734 0.008091668 -0.018433586 -0.08419779
-0.04017105 -0.05801836 0.06619083 0.042640336 0.046029516 0.039993193 -0.07483402 -0.037960105
-0.055337675 -0.056841806 0.06880433 0.030031431 0.050471086 -0.024757078 -0.09887486 -0.04622766
0.0419883 0.03446358 0.0070398375 -0.02592675 -0.082499124 -0.047493417 0.026099276 -0.055781934

bias f4 [64]
00000000: 74ec a0bd e442 873d 9dbe 7c3d e639 8dbd
00000010: 97bc 6a3d 2f2d 8abd 10fa 133d 6cef 8e3d
00000020: abf9 323d a49f 003d 6cc2 74bd ed97 77bd
00000030: b438 9b3c ed64 713c 42f6 643d bdf9 ebb9
00000040: ca15 153d 57b5 88bd c990 f6bc cf4c 573d
00000050: d6ac b23c ed81 933d ae6c a6bd c092 71bd
00000060: 6cde 2d3d 9560 65bc 084f 83bd 665b 113d
00000070: 3cbe 69bc 041a af3c 5439 90b8 e7a3 79bd
00000080: de18 3abd 5b54 9dbd 3795 383d ebd8 8abd
00000090: 92f5 a23d adea 53bd f744 a03c 56cd 7e3d
000000a0: 89b0 57bd 1407 b7bd ccd6 503c 7813 96bd
000000b0: 9bbd dc3c 46ee 0f3d df27 833d 1d6f 16bc
000000c0: c959 47bd 938e a8bd 1644 97bd b7d1 883d
000000d0: bc00 9bbc c04b 44bc 12a3 99bc a225 8fbd
000000e0: 9872 913d f4e3 fabc 1ab6 2fbd 871e 973d
000000f0: 3be8 8a3d 02af 753d bcb8 813d fee8 65bd
-0.078576 0.06604555 0.06170522 -0.06895809 0.05730876 -0.06746899 0.03612715 0.0697926
0.043695133 0.031402245 -0.059755728 -0.060447622 0.018947937 0.014733535 0.055898912 -0.00045008762
0.036397733 -0.06675213 -0.030098336 0.052563485 0.02181093 0.07202516 -0.08126198 -0.058977842
0.042448446 -0.014000078 -0.064115584 0.035487555 -0.014266547 0.02137471 -6.877133e-05 -0.060947325
-0.04543387 -0.07682105 0.045064177 -0.06779655 0.07956995 -0.051737476 0.019564135 0.062207542
-0.05265859 -0.08936897 0.012746524 -0.07327932 0.02694588 0.035139345 0.06404089 -0.009181765
-0.04866961 -0.08230319 -0.07386033 0.06680625 -0.018921249 -0.011980951 -0.018754516 -0.069896
0.07101935 -0.030626275 -0.042898275 0.073788695 0.06782576 0.059981354 0.063340634 -0.0561304

weight f4 [1, 64]
00000000: 64bc 263d 8479 94bc 4069 923b 582c 713d
00000010: 68cd 00bd 361d 773e 9ab4 053e bbb9 483e
00000020: deaf 093e b970 eabd 17cb 8cbd 6b27 a7bd
00000030: f0a3 703c 7b1e 8abd a039 a8bd 9991 193e
00000040: 5816 e0bd fe4d 8bbd c0e5 8fbd b8ea 793d
00000050: c3bf 6e3e 9719 293e df5a 79bd a6c4 c13d
00000060: d474 713e cf5c cfbc 80b8 5c3e f35e 1d3e
00000070: 7e03 94bd bcb9 05bd 8d3e abbd f47b 1a3d
00000080: 03a8 cd3d 5b7a efbd de53 10bd d995 043e
00000090: 56fd cc3d 3dff 48bd e08e f0bb 56f1 983c
000000a0: a111 6cbd 0ad2 4ebd d8fd 08bd f480 f0bc
000000b0: 995d 97bc 90cd 433c d035 2bbc 802d 79bd
000000c0: b80a 4b3e 71e6 573e 53ac b5bb 1ad7 5fbc
000000d0: 7a81 f9bd 01fc a8bd c08d babb a93c 19bb
000000e0: bdba 263e 1f0d 5fbd 7017 d4bc 2e2e 113e
000000f0: 4eaf 7a3e 818b 5e3e 9665 a8bd 1093 2abc
0.040707007 -0.01812435 0.004468113 0.05888018 -0.03144589 0.24132237 0.13057175 0.196021
0.13445994 -0.114472814 -0.06874674 -0.08161815 0.014687523 -0.06744095 -0.08214116 0.14996947
-0.10941762 -0.06801985 -0.07026243 0.06101486 0.23315339 0.16513668 -0.060877677 0.09461336
0.23579723 -0.02531281 0.21554756 0.15368252 -0.072272286 -0.032647833 -0.0836154 0.037715867
0.10041811 -0.11693259 -0.035236232 0.12947787 0.100092575 -0.04907154 -0.007341251 0.018669765
-0.057634 -0.050493278 -0.03344521 -0.029358365 -0.018477248 0.011950865 -0.010449842 -0.060834408
0.19828308 0.21084 -0.0055442243 -0.013662124 -0.12182899 -0.08251191 -0.0056931674 -0.0023382104
0.16282173 -0.054455873 -0.025890082 0.14177772 0.24480936 0.21732904 -0.08222501 -0.010411039
