pract1.pth (torch, 16244 bytes, 7 tensors)

weight f4 [64, 4]
0	0xbe2452d4	-0.16047221
1	0xbea939d0	-0.3305192
2	0x3e4b5dfc	0.19860071
3	0x3eb9e17a	0.36304837
4	0x3e86e796	0.2634856
5	0xbe0c2f95	-0.13690026
6	0x3e8cde05	0.27513137
7	0x3e31f196	0.17377314
8	0x3fc93c67	1.5721558
9	0x3ed7e1f9	0.4216459
10	0xbdf3fa0f	-0.11912929
11	0xbe62c7b4	-0.22146493
12	0xbf6b2727	-0.91856617
13	0x3f0221e2	0.5083295
14	0x3cf2077a	0.02954458
15	0x3e36e6bd	0.17861457
16	0xc00aa569	-2.1663458
17	0x3ef56f1b	0.4793633
18	0x3f1d35b8	0.61410093
19	0x3fbd4998	1.4788084
20	0x3f7f1408	0.9963994
21	0x3e65edf4	0.22454053
22	0xbd6ac486	-0.057316326
23	0xbea3a336	-0.31960458
24	0x3f5e2d66	0.8678802
25	0x3e95d524	0.29264176
26	0xbd80b069	-0.062836476
27	0x3ed7eccd	0.42172852
28	0xbe834ef6	-0.2564618
29	0xbe8036b4	-0.25041735
30	0x3e7bef5c	0.24603027
31	0xbef19f00	-0.4719162
32	0x3ec8a724	0.39190018
33	0xbdba68d0	-0.09102023
34	0xbe66db24	-0.22544533
35	0xbecf924c	-0.40541303
36	0x3e95f2d8	0.29286838
37	0xbee3a25c	-0.44459808
38	0x3e592244	0.21204478
39	0x3e07f1d8	0.1327585
40	0x3f717385	0.94316894
41	0x3ebde644	0.3708974
42	0x3e33cb31	0.1755798
43	0xbf3cc843	-0.73743075
44	0xbed5a5b6	-0.4172799
45	0xbe83cdda	-0.2574299
46	0x3e114e58	0.14190042
47	0xbe88014a	-0.26563483
48	0x3f8aea89	1.0852824
49	0x3e3871f9	0.18012227
50	0xbe214d52	-0.15752152
51	0xbf158776	-0.5840982
52	0xbf019d21	-0.50630385
53	0xbcaa81c3	-0.020813828
54	0xbee7d501	-0.45279697
55	0x3f918ad3	1.1370491
56	0xbfba17d6	-1.4538524
57	0x3edc96a2	0.43083674
58	0x3ea2bab0	0.31783056
59	0x3f85f54a	1.0465481
60	0x3efb9f68	0.49145055
61	0xbef9c998	-0.48786616
62	0x3e2a2cd4	0.16618663
63	0x3ac3e400	0.0014945269
64	0x3e91d612	0.28483635
65	0x3e41d839	0.18930139
66	0x3f002f12	0.50071824
67	0xbf556827	-0.8336205
68	0x3f273e08	0.6532903
69	0x3ebbecc3	0.36704072
70	0x3dad723d	0.08469055
71	0xbd8f4c4f	-0.069969766
72	0xbdfd4678	-0.123669565
73	0xbe8d91d6	-0.27650326
74	0xbec63758	-0.387141
75	0xbe8538be	-0.26019853
76	0xbfbf174b	-1.4928983
77	0xbbb1a8b0	-0.0054217204
78	0x3d867fb6	0.06567328
79	0x401d73d6	2.460195
80	0xbec3913e	-0.38196748
81	0xbed0ba02	-0.40766913
82	0x3ecb4868	0.3970368
83	0xbec12118	-0.3772056
84	0xbe3608f8	-0.17776859
85	0xbee5d94e	-0.44892353
86	0xbec3d784	-0.38250363
87	0x3ec6abdc	0.38802993
88	0xbe456f94	-0.19280845
89	0xbe7ca358	-0.24671686
90	0xbe91cb1c	-0.28475273
91	0x3e4b3e74	0.19848043
92	0xc007eb71	-2.1237452
93	0x3eb05852	0.34442383
94	0xbe3f5503	-0.18684773
95	0x400925d3	2.1429336
96	0x3ee51a68	0.4474671
97	0xbe29d6b4	-0.16585809
98	0xbeb7c518	-0.35892558
99	0xbe3e6894	-0.18594581
100	0xbcedc280	-0.029023409
101	0xbef76bb6	-0.48324364
102	0x3e6c3bfc	0.23069757
103	0x3de61210	0.11233914
104	0xbf81ccba	-1.0140603
105	0xbb66562b	-0.0035146575
106	0x3e8aa82d	0.27081433
107	0x4007ecd8	2.1238308
108	0xbfab031a	-1.3360322
109	0x3f05cee3	0.5226881
110	0x3e837df6	0.25682038
111	0x3f1be2c3	0.60892886
112	0xc0194176	-2.3946204
113	0x3ed64d35	0.4185578
114	0x3e2dca94	0.16971809
115	0x3fcf4999	1.6194335
116	0xbfb22c7a	-1.3919823
117	0x3e7955af	0.24349092
118	0xbe5e69e1	-0.21720077
119	0x3f4ee91f	0.80824465
120	0xbfcb1e0d	-1.5868546
121	0x3f00b031	0.50268847
122	0x3ec941d6	0.3930804
123	0x40021225	2.0323575
124	0xbfb6ce3c	-1.4281688
125	0xbb887a66	-0.0041649817
126	0x3e133485	0.14375503
127	0x400eed5a	2.2332368
128	0x3e3a6934	0.18204194
129	0xbe3249b0	-0.17410922
130	0x3de85308	0.11343962
131	0xbef5891c	-0.4795617
132	0xbfe17510	-1.761385
133	0x3ee77074	0.45202982
134	0x3eca3b33	0.3949829
135	0x3fffaad3	1.9974006
136	0xbfe47f76	-1.7851398
137	0x3ea479a7	0.32124063
138	0xbd4d30a5	-0.05009522
139	0x40156ec8	2.3348866
140	0x3e8d0b38	0.27547622
141	0xbdeecc80	-0.11660099
142	0x3cd0e380	0.025499105
143	0xbd95c408	-0.073127806
144	0x3efb6d8f	0.49107024
145	0x3e550e58	0.20806253
146	0x3e623e4a	0.22094074
147	0x3faaeb80	1.3353119
148	0x3f81f830	1.0153866
149	0x3e9c92f7	0.30580875
150	0x3ec872b1	0.39150003
151	0x3efe21ef	0.49635264
152	0xbe71c17c	-0.23608965
153	0xbecdb5a2	-0.40177637
154	0xbee90796	-0.455136
155	0x3c5a4300	0.013321638
156	0xbe7cc854	-0.24685794
157	0xbeb8aed6	-0.3607089
158	0x3eeba93c	0.46027553
159	0xbdb91408	-0.09037024
160	0xbe40c842	-0.18826392
161	0x3e21e26f	0.15809034
162	0x3e7ed460	0.24885702
163	0x3fa57893	1.2927421
164	0x3ec4450c	0.3833393
165	0xbeb3513c	-0.35022914
166	0xbc9cadc0	-0.01912582
167	0x3c2efc80	0.010680318
168	0xbf9b2190	-1.2119617
169	0x3e7ade4d	0.24498864
170	0xbd9237ef	-0.07139575
171	0x3f066db2	0.5251113
172	0xbf66d52a	-0.9016901
173	0x3dbcb2e9	0.09213812
174	0x3e13d976	0.14438424
175	0xbdc0e091	-0.09417833
176	0x3de3f800	0.111312866
177	0xbe3b97ac	-0.18319577
178	0xbe39b684	-0.1813603
179	0xbe9b8e1c	-0.30381858
180	0x3f9ee182	1.241257
181	0x3e34d716	0.17660174
182	0x3e1a922c	0.15094823
183	0xbe4a820d	-0.19776173
184	0xbf6678ca	-0.9002806
185	0x3deacbd9	0.11464662
186	0xbdaea029	-0.08526642
187	0x3f093d0c	0.53608775
188	0x3ef1f33c	0.47255886
189	0xbd6a11e0	-0.057145953
190	0xbecf240a	-0.40457183
191	0xbd58b030	-0.0529024
192	0xbddc2134	-0.107485205
193	0x3da6459d	0.081187464
194	0xbe466906	-0.19376001
195	0x3f722b06	0.945969
196	0x3f8b69f5	1.089171
197	0x3e6d5c6e	0.2317979
198	0x3e9e9951	0.30976346
199	0x3efcd21b	0.49379048
200	0xbfcd644f	-1.6046237
201	0xbbb04512	-0.0053793276
202	0xbdb3f75d	-0.08787415
203	0x40060549	2.0940726
204	0xbf8c3c90	-1.0955982
205	0xbaa52de7	-0.0012602181
206	0xbd7fdda7	-0.062467244
207	0x3fdfab6d	1.747419
208	0xbed9bb3a	-0.42525655
209	0xbed64a22	-0.41853434
210	0xbe5bb9dc	-0.21457618
211	0x3dac7708	0.08421141
212	0xbefc25ba	-0.49247533
213	0xbee2c8e8	-0.44293904
214	0xbcdaf900	-0.02673006
215	0xbee95500	-0.45572662
216	0x3e63e918	0.22256887
217	0xbec31ad8	-0.38106418
218	0xbeb1fd36	-0.34763497
219	0xbea5d63e	-0.32390016
220	0xbead7eb5	-0.33885732
221	0x3e835918	0.2565391
222	0x3ed8c931	0.42340997
223	0x3f93664c	1.1515594
224	0x3e89f4c4	0.26944554
225	0xbeaa8e50	-0.333117
226	0xbeafb568	-0.3431809
227	0x3dc64418	0.096809566
228	0x3f6fe344	0.93706155
229	0x3ea60eb3	0.3243309
230	0x3ea08220	0.31349277
231	0x3f01e217	0.5073561
232	0x3e99c02a	0.30029422
233	0xbe383d10	-0.17992043
234	0xbe79f250	-0.24408841
235	0x3e3d85d4	0.18508083
236	0xbe2ce5fc	-0.16884607
237	0xbecd4dec	-0.40098512
238	0x3eea56e0	0.45769405
239	0x3d57e170	0.05270523
240	0x3f1aa397	0.6040587
241	0x3ea6f7b9	0.32610872
242	0x3d884fe3	0.06655862
243	0x3f690b67	0.91033024
244	0xbdd5a1a2	-0.1043122
245	0x3df8ba0e	0.12144862
246	0xbe159ea0	-0.14611292
247	0x3ee6d122	0.4508143
248	0xbe2a4ff8	-0.16632068
249	0xbee95dbc	-0.45579326
250	0xbe8e18a6	-0.2775318
251	0x3e0f84bc	0.14015478
252	0xbedb9d32	-0.42893368
253	0xbe84d390	-0.2594266
254	0xbd9ab7d8	-0.07554597
255	0x3bb63580	0.005560577

bias f4 [64]
0	0xbe4cf4a8	-0.20015204
1	0x3ecd3688	0.40080667
2	0x40a7d67d	5.2449327
3	0xc04d8e90	-3.2118263
4	0xbf8e76a0	-1.1129951
5	0x409f6992	4.981637
6	0x40b5cc42	5.681184
7	0xbdbed7f0	-0.093185306
8	0x3e1a8918	0.1509136
9	0x3e7ec5ec	0.24880189
10	0x40936b3b	4.6068397
11	0xbebfbbea	-0.37448055
12	0x4095bec7	4.6795382
13	0x408acb78	4.3373375
14	0xc010e189	-2.2637656
15	0x3e8a8b5e	0.27059454
16	0xc0ae2f7a	-5.4432955
17	0x40be8bbb	5.954557
18	0x3edf0d96	0.43565053
19	0x40cf228a	6.472966
20	0xbed31218	-0.41224742
21	0x3e6fe5f8	0.2342757
22	0xbee2d502	-0.44303137
23	0xbfe7fac6	-1.8123405
24	0x3eb8151a	0.359536
25	0x3eb8e95c	0.3611554
26	0x40b679fa	5.7023897
27	0xc0417b87	-3.0231645
28	0xbfdd6b18	-1.7298307
29	0xc04cab41	-3.1979525
30	0xbd6651f0	-0.056230485
31	0x40c3f426	6.1235533
32	0xbeb3ddc8	-0.35130143
33	0x3e0ee3e9	0.13954128
34	0xbfa257da	-1.268306
35	0x3e8cb47a	0.27481443
36	0x40cda192	6.425973
37	0x40bde558	5.934246
38	0xbdce2b28	-0.10066825
39	0x3ea0a030	0.31372213
40	0x40cd3092	6.412179
41	0x3eb4971a	0.3527153
42	0xc0584323	-3.3790977
43	0xc042bb1c	-3.0426702
44	0xbe8e9f14	-0.27855742
45	0x40a5cd25	5.181292
46	0xc05a3640	-3.4095612
47	0xbde38df0	-0.11111057
48	0x40bf8fca	5.9863024
49	0x40bf192f	5.971824
50	0x40aa4ff7	5.3222613
51	0x40cbb84d	6.3662477
52	0x3e405a4c	0.18784446
53	0x3ee80ade	0.4532079
54	0xbdf047e8	-0.11732465
55	0x40c10a3a	6.0324984
56	0x3e95cc36	0.29257363
57	0x40d21817	6.5654407
58	0x3ed9278a	0.42412978
59	0x3ee437f0	0.44573927
60	0x40cae746	6.3407316
61	0x40b87dc7	5.7653537
62	0x3dc447b0	0.09583986
63	0xbe314e50	-0.1731503

weight f4 [32, 64]
0	0xbda218be	-0.079148754
1	0xbd4d2afd	-0.050089825
2	0xbd3f65f9	-0.046728108
3	0x3d378194	0.04480131
4	0x3d69e1f4	0.05710025
5	0x3d17939d	0.03700601
6	0xbc0d7839	-0.00863462
7	0xbdea7976	-0.11448948
8	0xbdb4b848	-0.08824211
9	0x3de48008	0.111572325
10	0x3db8f6ab	0.09031423
11	0x3d49ca58	0.049265236
12	0x3df15e2f	0.11785542
13	0x3df881a7	0.12134104
14	0x3d4a8c9e	0.04945051
15	0x3da67706	0.08128171
16	0xbe287a89	-0.16452993
17	0x3d8bb998	0.068225086
18	0xbc7ba8f0	-0.015360102
19	0x3f1f7144	0.62282205
20	0x3debf8de	0.11522077
21	0xbdda0c1a	-0.106468394
22	0x3c922248	0.017838612
23	0x3d0a9156	0.03383001
24	0x3df9f586	0.12205033
25	0xbd7fb91c	-0.062432393
26	0x3ee49349	0.4464362
27	0x3de4c7cd	0.111709215
28	0x3dd0aad5	0.101888336
29	0xbe126c5e	-0.14299151
30	0x3dfd1a7e	0.123585686
31	0x3ed49258	0.415179
32	0x3c087460	0.008328527
33	0x3c907727	0.017634941
34	0xbdc59218	-0.09647006
35	0x3db72cda	0.08944102
36	0x3dcb612a	0.09930642
37	0xbc46a1ed	-0.012123567
38	0x3d845a02	0.0646248
39	0x3bcc3c60	0.006232783
40	0x3dc0587e	0.093918785
41	0xbcac46f8	-0.021029934
42	0x3d8ed1a2	0.06973578
43	0x3ce83fb3	0.028350687
44	0x3d010a68	0.031504065
45	0x3e0e4b62	0.13895944
46	0x3bc85d2a	0.0061146216
47	0x3d375240	0.044756174
48	0x3e15e9ac	0.1463992
49	0x3e2718c8	0.16318047
50	0x3e23905c	0.15973037
51	0x3ec14e24	0.3775493
52	0x3d8d02f4	0.06885329
53	0xbd149d54	-0.036282852
54	0xbc9720f0	-0.018448323
55	0xbd3ba4d4	-0.04581149
56	0xbdec28ce	-0.115312204
57	0x3dd8de8a	0.10589321
58	0x3cbfdab8	0.023419723
59	0xbc3189c0	-0.010836065
60	0x3df4388a	0.119248465
61	0x3dbf65ee	0.093456134
62	0x3df0fc2a	0.117668465
63	0x3acd6c00	0.0015672445
64	0xbca0a7c0	-0.01961124
65	0xbddad598	-0.10685271
66	0x3e33503f	0.1751108
67	0xbe8b2acb	-0.27181086
68	0xbe622ad2	-0.22086647
69	0x3e1f9ff9	0.15588368
70	0x3e91d644	0.28483784
71	0xbdb06d86	-0.0861464
72	0x3da70d58	0.08156842
73	0x3d5fb8b4	0.054619506
74	0x3d96da30	0.07365835
75	0x3dc64a74	0.096821696
76	0x3eb7d326	0.3590328
77	0x3fb80018	1.4375029
78	0xbe5537a5	-0.20822008
79	0xbdd6416c	-0.10461697
80	0xbf8952cc	-1.0728393
81	0x3e301fb2	0.17199591
82	0x3d7a9bc8	0.06118372
83	0x3fa957ba	1.3229897
84	0xba8c9e00	-0.001072824
85	0x3dbe0034	0.092773825
86	0x3d907c10	0.07054913
87	0x3dd543b3	0.10413303
88	0xbd1f71d8	-0.03892693
89	0xbcbce198	-0.02305679
90	0x3f48862f	0.7832975
91	0xbe8ce4ce	-0.27518314
92	0xbe3e412e	-0.18579552
93	0x3dbf7fd7	0.093505554
94	0xbe6187db	-0.22024481
95	0x3f90c8c8	1.1311274
96	0xbd87b3e4	-0.06626108
97	0xbdac225b	-0.0840499
98	0x3de0ec77	0.10982602
99	0xbd2b8a2c	-0.041879818
100	0x3ec6e865	0.38849178
101	0x3d0ceb6b	0.0344042
102	0xbd9ddfb0	-0.07708681
103	0xbc3832a0	-0.011242539
104	0x3eaebc68	0.34128118
105	0x3df15fa8	0.11785823
106	0xbc4fdb78	-0.012686603
107	0xbe727530	-0.23677516
108	0x3d5162e0	0.051119685
109	0x3d344cc1	0.04401851
110	0xbd829db5	-0.063777365
111	0xbdd42f34	-0.10360566
112	0x3f426f1d	0.75950795
113	0x3d374e29	0.044752274
114	0x3f8edc7c	1.1161036
115	0x3fd9987e	1.6999662
116	0x3deac9ba	0.114642575
117	0x3db7fbb2	0.08983554
118	0xbdec9366	-0.115515515
119	0x3e302188	0.17200291
120	0xbda6519c	-0.081210345
121	0x3e70d095	0.23517068
122	0xbd8a1a6a	-0.06743319
123	0xbd7e3948	-0.062066346
124	0x3e9837ad	0.29729977
125	0x3f00a30f	0.5024881
126	0x3db895c0	0.090129375
127	0x3db8af18	0.090177715
128	0xbdf85aa4	-0.12126663
129	0xbbee3400	-0.0072693825
130	0x3da83be8	0.08214551
131	0xbdd25118	-0.10269374
132	0xbdeda668	-0.11604005
133	0xb8dd3800	-0.00010548532
134	0xbdb9ae8a	-0.09066494
135	0xbc9ad4a8	-0.01890023
136	0xbcb4d810	-0.022075683
137	0x3c69cbf0	0.014269814
138	0xbdf1a228	-0.11798507
139	0xbdabc182	-0.08386518
140	0xbd20b2f0	-0.039233148
141	0x3d9cddb8	0.07659477
142	0x3dd4f044	0.103973895
143	0x3d0b8850	0.034065545
144	0xbd8db2ae	-0.06918846
145	0xbd89c91a	-0.0672781
146	0x3dd4765c	0.10374138
147	0xbc23f890	-0.010007992
148	0xbcc0e3f0	-0.02354619
149	0x3d91ee14	0.07125488
150	0x3d8210ac	0.06350836
151	0xbd8964e2	-0.06708695
152	0xbd7344c0	-0.059391737
153	0xbdb2a12a	-0.08722146
154	0xbd2a1b38	-0.041529864
155	0x3d9d53fa	0.07682033
156	0xbd00d714	-0.031455114
157	0x3b19bf40	0.002345994
158	0xbc53ba70	-0.012922868
159	0x3db0a986	0.08626084
160	0x3c4126a0	0.011788994
161	0xbd45a9f4	-0.048257783
162	0x3de1f612	0.11033262
163	0xbd5a97c8	-0.053367406
164	0xbcdd18a0	-0.026989281
165	0x3d9e8e74	0.077420145
166	0xbdcb5210	-0.099277616
167	0x3dcfa586	0.10138993
168	0x3b87ade0	0.0041406006
169	0x3df2e99a	0.11860962
170	0x3d471118	0.048600286
171	0x3b1ce4c0	0.0023940057
172	0x3c81a9c0	0.015828013
173	0x3caea670	0.021319598
174	0xbd7ab4fc	-0.061207756
175	0x3da9a9f4	0.08284369
176	0xbc8f1b08	-0.017468944
177	0xbd723868	-0.059135824
178	0xbd5c7d1c	-0.05383025
179	0x3df63852	0.12022461
180	0xbd74fc08	-0.05981067
181	0xbd3a42a4	-0.04547371
182	0xbd54d888	-0.051964313
183	0xbdaffcf8	-0.08593172
184	0xbd389bd8	-0.0450705
185	0xbd499368	-0.049212843
186	0xbbb06280	-0.005382836
187	0xbd9e9240	-0.07742739
188	0xbdbe720e	-0.09299098
189	0x3dd9848e	0.10620986
190	0x3d8ee5d8	0.06977433
191	0xbbdbf000	-0.00671196
192	0x3da631e6	0.08114986
193	0xbddbc17a	-0.10730262
194	0xbd8a534d	-0.067541696
195	0x3db314b1	0.08744181
196	0xbdd0b1f7	-0.10190194
197	0xbaf17542	-0.0018421786
198	0xbd9b7f91	-0.07592691
199	0xbd82f5ac	-0.063945144
200	0xbdec8a64	-0.115498334
201	0x3d31859c	0.04334031
202	0xbd1896f2	-0.037253328
203	0xbcbc9130	-0.02301845
204	0xbd5fffe6	-0.054687403
205	0xbdaf42b7	-0.08557647
206	0x3d006386	0.031344913
207	0xbd40fb98	-0.04711494
208	0x3db1aab1	0.08675135
209	0xbb0ba6e1	-0.0021309184
210	0xbc2bde90	-0.010490075
211	0x3c8d38c0	0.017238975
212	0x3d36c380	0.044620037
213	0x3d756c68	0.059917837
214	0x3c048a00	0.008089542
215	0xbd33bb2e	-0.04387968
216	0x3d85baa0	0.065297365
217	0x3d89f874	0.06736842
218	0xbbbfc200	-0.005851984
219	0xbd174526	-0.03693118
220	0x3d1266ee	0.035742693
221	0x3dd82a7b	0.105549775
222	0xbdfa2f77	-0.122160845
223	0x3dfbd5de	0.12296651
224	0xbcdb8bc0	-0.026800036
225	0xbd08e967	-0.033425715
226	0x3d33e07e	0.043915264
227	0xbd9427c6	-0.07234149
228	0xbdc1e29f	-0.09467053
229	0xbccd778c	-0.025081418
230	0xbdf221a2	-0.11822821
231	0x3c3b3b70	0.011427745
232	0xbd09699f	-0.033547994
233	0xbd431234	-0.04762478
234	0x3d169f3a	0.036772944
235	0x3cb68fed	0.022285426
236	0x3d2298c8	0.039696485
237	0x3dcd4e41	0.100246914
238	0xbde4b601	-0.11167527
239	0x3dd4a7ec	0.10383591
240	0xbd59365e	-0.053030364
241	0xbd0653e7	-0.03279486
242	0xbdb47918	-0.08812159
243	0x3dcea4e8	0.10090047
244	0xbd3c4db4	-0.04597254
245	0x3d33b6b8	0.043875426
246	0xbd95721a	-0.07297154
247	0x3d969952	0.07353462
248	0x3d88db3a	0.06682439
249	0xbd565ac3	-0.05233265
250	0x3dd6f27e	0.104954705
251	0x3c2ef0d0	0.010677531
252	0x3c8d759c	0.017267995
253	0xbcc60f7c	-0.024177305
254	0xbcae0c20	-0.021246016
255	0x3c0bcb40	0.008532345

bias f4 [32]
0	0x405fb36d	3.4953263
1	0x40b914c2	5.783784
2	0xbdedbf46	-0.11608748
3	0x3dc8fa75	0.09813396
4	0xbd7936a8	-0.06084314
5	0xbd6c0ec0	-0.057631254
6	0x3cd35178	0.025795683
7	0x3de695ce	0.11259042
8	0x3d687f74	0.056762174
9	0x4058230f	3.3771398
10	0x3d8cb72b	0.06870874
11	0xbcfaccd0	-0.03061524
12	0xbdc26df5	-0.09493629
13	0x3dd97bda	0.10619326
14	0x40bd79c2	5.921113
15	0x3d9f9022	0.07791163
16	0x4027ac35	2.6198857
17	0x3d7cb895	0.06169947
18	0x4055d5aa	3.341166
19	0x3d84bb26	0.06481008
20	0xbd911cf6	-0.07085602
21	0x3db49422	0.088173166
22	0x4051f6c0	3.2806854
23	0x40544fbf	3.3173673
24	0x3da0ef4a	0.07858141
25	0x40a8cf06	5.2752714
26	0x4055447e	3.3323054
27	0xbd867968	-0.06566125
28	0xbcff5ab3	-0.031171178
29	0xbde98fbc	-0.11404368
30	0x3dcf0efe	0.101102814
31	0x4037df48	2.873003

weight f4 [16, 32]
0	0xbd8bc67f	-0.068249695
1	0x402899e0	2.6343918
2	0x3dd15172	0.102206126
3	0xbd63d778	-0.05562541
4	0xbdb0bcfd	-0.08629797
5	0xbe2f2ae3	-0.17106204
6	0x3d99053d	0.07471702
7	0x3bb13d46	0.0054089157
8	0xbde70513	-0.11280265
9	0x3c7fd4c4	0.015614692
10	0xbde7edc1	-0.11324645
11	0x3d875d83	0.06609633
12	0xbd06ec36	-0.032940112
13	0xbe00da32	-0.12583235
14	0x4003d94d	2.060138
15	0x3e3290d0	0.17438054
16	0x3b8dbb95	0.00432534
17	0xbd0aa748	-0.033850938
18	0xbe1b43ae	-0.15162537
19	0x3daac07b	0.08337494
20	0x3e173279	0.14765348
21	0x3ca5b164	0.020226188
22	0xbe2706b4	-0.16311151
23	0x3dfc1111	0.12307943
24	0x3bccb3dc	0.006247027
25	0x405661be	3.3497157
26	0x3de3b06e	0.11117636
27	0x3ddcf6bb	0.107892476
28	0xbdf76464	-0.12079695
29	0x3dbf30dc	0.09335491
30	0x3c090737	0.008363537
31	0xbd9a0029	-0.07519562
32	0xbe1cc683	-0.15310101
33	0x3ddb2bc0	0.10701704
34	0x3de99b12	0.114065304
35	0xbe2565f9	-0.1615218
36	0x3d6de792	0.05808217
37	0x3e2ade4e	0.16686365
38	0x3de3e277	0.11127179
39	0x3e2178ad	0.1576869
40	0x3d7e8db3	0.062146854
41	0x3dda1cb5	0.10650007
42	0xbd0d4bea	-0.034496225
43	0x3d93f35b	0.07224151
44	0x3dfc99fc	0.12334058
45	0x3dc96ec1	0.09835578
46	0x3e1b6b87	0.15177737
47	0x3cd9221b	0.02650552
48	0x3d1bb5f9	0.03801534
49	0xbdcb080a	-0.09913643
50	0xbdef70ec	-0.1169146
51	0x3e196fd5	0.14984067
52	0xbe32734c	-0.17426795
53	0xbd5f598f	-0.05452877
54	0xbb2af112	-0.002608363
55	0xbd8bff7c	-0.06835839
56	0xbd9e1d3c	-0.0772042
57	0x3daeb64e	0.085308656
58	0xbdd9746e	-0.1061791
59	0xbcbb2462	-0.022844497
60	0x3d05a2a5	0.032625813
61	0x3dbfee7c	0.09371659
62	0xbdc892d8	-0.09793633
63	0xbd409e61	-0.047026042
64	0x3c97ebd2	0.018545065
65	0x4018d685	2.3880932
66	0xbdff9327	-0.12479239
67	0xbd2c3420	-0.042041898
68	0xbe17fbf5	-0.14842208
69	0x3e26688c	0.16250819
70	0x3c96a54b	0.018389365
71	0x3d2f2b90	0.042766154
72	0xbd84faa1	-0.06493116
73	0x3e7b69de	0.24552104
74	0xbd5bfa8d	-0.05370574
75	0x3d0624d7	0.032749977
76	0xbd0074af	-0.03136128
77	0xbd5028df	-0.050820228
78	0x40001470	2.0012474
79	0x3e1c36ca	0.15255275
80	0xbd51c3cc	-0.051212117
81	0x3e38b375	0.18037207
82	0x3db4ebdf	0.08834051
83	0x3de91d29	0.11382515
84	0xbdc0a644	-0.09406713
85	0xbe28ea19	-0.16495551
86	0x3dff40b1	0.12463511
87	0x3e5d3b00	0.21604538
88	0xbcd7c10a	-0.026337165
89	0x404cb0e1	3.1982958
90	0x3e35e9c0	0.1776495
91	0x3e2c9c5e	0.16856524
92	0xbdf76f24	-0.12081745
93	0x3d8cbff8	0.06872553
94	0x3d433a5a	0.04766307
95	0x3e4fd540	0.20296192
96	0x3dbf61cd	0.09344826
97	0x402598c8	2.58745
98	0xbe296a05	-0.1654435
99	0xbe0709b6	-0.13187298
100	0xbde4c736	-0.11170809
101	0x3c1ee271	0.0096975425
102	0x3d70b751	0.058768574
103	0x3e2b3e9c	0.16723102
104	0x3e05475f	0.13015507
105	0x3db20033	0.08691444
106	0xbe22cfc1	-0.15899564
107	0xbd1948b7	-0.037422862
108	0x3e36406b	0.17798011
109	0xbc952c24	-0.018209524
110	0x401adf28	2.4198704
111	0xbd5e7196	-0.054307543
112	0xbe1f02a6	-0.15528354
113	0x3c7a9db9	0.015296393
114	0x3d24399f	0.040094014
115	0x3d382811	0.044960085
116	0xbda41bbf	-0.08013105
117	0x3dc37877	0.09544461
118	0x3e046962	0.12930825
119	0x3cc937a8	0.024562672
120	0xbdad5959	-0.08464307
121	0x4049061c	3.140998
122	0xbdfe287d	-0.12410066
123	0xbe11ac6b	-0.14225928
124	0x3e36a510	0.17836404
125	0xbc9d276e	-0.01918384
126	0x3dcf2fe1	0.10116554
127	0xbdf6385f	-0.12022471
128	0x3d916129	0.0709861
129	0x3db41b19	0.08794231
130	0x3dc88752	0.09791435
131	0xbe19a243	-0.15003304
132	0x3e312994	0.17301017
133	0xbdff2b5d	-0.12459443
134	0x3dec56df	0.11540007
135	0x3d88cfe7	0.06680279
136	0xbdac32a6	-0.08408098
137	0x3e098e5b	0.1343321
138	0x3da6b28c	0.08139524
139	0xbcea1fdf	-0.02857965
140	0xbe1b888b	-0.15188806
141	0x3d9bbc75	0.07604305
142	0x3d50215b	0.05081306
143	0x3dab4666	0.08363037
144	0xbde7a0d0	-0.113099694
145	0x3b85d9b0	0.0040847883
146	0xbdc63220	-0.09677529
147	0x3dd1929f	0.10233044
148	0xbe28daa0	-0.16489649
149	0x3e2ca3e6	0.16859397
150	0xbe072b12	-0.13200024
151	0xbdc25f4d	-0.094908334
152	0x3e13e40b	0.1444246
153	0xbde063b2	-0.10956515
154	0x3dde90e8	0.108674824
155	0xbd86784a	-0.06565912
156	0x3e084435	0.13307269
157	0x3e2fe6e4	0.17177922
158	0xbd91ec95	-0.071252026
159	0xbe2c6716	-0.16836199
160	0xbdb06913	-0.08613791
161	0x3e1018e5	0.14071997
162	0xbd8d6dc4	-0.06905702
163	0x3bdfd3bf	0.006830662
164	0xbe144469	-0.14479221
165	0x3df00b44	0.11720899
166	0xbe00de4e	-0.12584803
167	0x3d31b74b	0.043387692
168	0xbdde2cf3	-0.10848417
169	0x3db493e9	0.08817274
170	0xbb052cb4	-0.0020320835
171	0xbdf08eef	-0.117460124
172	0x3e1c82b6	0.15284237
173	0x3e0969e6	0.13419303
174	0x3cc76dba	0.024344314
175	0xbd011dba	-0.03152249
176	0xbd900d89	-0.070338316
177	0x3e141ded	0.14464541
178	0x3cf0613b	0.029343238
179	0x3da33800	0.079696655
180	0x3da15307	0.07877164
181	0x3e2149af	0.15750764
182	0xbd545eba	-0.05184815
183	0xbde2dd03	-0.11077311
184	0xbcf9d005	-0.0304947
185	0xbdb46d5d	-0.08809922
186	0xbd2a77f7	-0.041618314
187	0x3d4ac696	0.049505793
188	0x3cc458ca	0.02396812
189	0x3df46130	0.119325995
190	0xbca72fac	-0.020408474
191	0xbc6b9195	-0.014377971
192	0x3c9f215d	0.019425089
193	0xbda89498	-0.08231467
194	0x3e053292	0.13007572
195	0x3dac867d	0.08424089
196	0x3d1040bd	0.03521799
197	0x3dbbbb6f	0.091666095
198	0x3e1c8609	0.15285505
199	0xbe0a5c64	-0.13511807
200	0xbe0cd9c7	-0.1375495
201	0xbaa21418	-0.0012365608
202	0x3ddce9d2	0.10786785
203	0x3d9838d5	0.07432715
204	0x3ddeba0f	0.108753316
205	0xbdaa93cf	-0.083289735
206	0x3dba60b4	0.09100476
207	0x3c3f2687	0.0116669005
208	0xbd6a803e	-0.057251208
209	0xbcfee5e0	-0.031115472
210	0xbdae7159	-0.08517713
211	0xbe12d303	-0.14338307
212	0x3d54869a	0.05188618
213	0x3e29b4a5	0.16572817
214	0xbdcfa9c5	-0.10139803
215	0xbdd7b034	-0.10531655
216	0x3c952ddd	0.018210346
217	0xbc3750a5	-0.011188661
218	0xbb80358f	-0.0039126347
219	0x3e185e82	0.14879802
220	0xbdcb343f	-0.099220745
221	0xbdc6cf04	-0.09707454
222	0xbe14e39b	-0.1453995
223	0xba11b37b	-0.0005558056
224	0xbd714881	-0.058907036
225	0x401791cb	2.3682735
226	0xbe14f634	-0.14547044
227	0xbd48c4ea	-0.049015917
228	0xbe06bac5	-0.13157184
229	0x3d891121	0.0669272
230	0xbdd04459	-0.10169286
231	0x3d899e6f	0.06719672
232	0x3c62a09c	0.013832238
233	0x3e063d77	0.13109384
234	0x3ca7dad1	0.020490082
235	0x3db4bf74	0.08825579
236	0x3da2f6bd	0.07957218
237	0x3d237ff3	0.039916944
238	0x40022789	2.033663
239	0xbda52ee3	-0.080655836
240	0x3ce24570	0.027621001
241	0xbdc051f4	-0.09390631
242	0x3e1d0466	0.15333709
243	0x3cbc1a0f	0.022961644
244	0xbd109c97	-0.035305586
245	0x3d450b79	0.048106644
246	0xbe0a7829	-0.135224
247	0x3dbf249c	0.093331546
248	0x3d647620	0.055776715
249	0x4054c339	3.3244154
250	0xbd867d15	-0.06566826
251	0xbdcf9124	-0.10135105
252	0x3d0c64c4	0.034275785
253	0xbbc78768	-0.0060891397
254	0xbcb87755	-0.02251784
255	0x3e0f8348	0.14014924

bias f4 [16]
0	0x408399c1	4.112519
1	0x3d2e81d0	0.042604268
2	0x4032ec19	2.7956603
3	0x40840390	4.125435
4	0xbe134bf7	-0.14384447
5	0xbd9788b3	-0.0739912
6	0xbe3939b8	-0.18088424
7	0x4080dff5	4.0273385
8	0x402c831f	2.695503
9	0x407db25c	3.9640112
10	0xbc07f8f9	-0.008299106
11	0x3c702399	0.014656925
12	0x40516553	3.2718093
13	0x3ddaec9b	0.1068966
14	0x403a5c5b	2.911887
15	0x408b6a84	4.3567524

weight f4 [1, 16]
0	0x3eec09ad	0.46101132
1	0x3df15348	0.11783463
2	0x3edaa294	0.42702162
3	0x3f487bf3	0.7831413
4	0x3dd9eb70	0.10640609
5	0xbe1b7039	-0.15179528
6	0xbd93a127	-0.07208472
7	0x3ebb526c	0.3658632
8	0x3ee4f3bd	0.44717208
9	0x3f0f1ea1	0.5590611
10	0xbd92735a	-0.07150908
11	0x3e5960ea	0.21228376
12	0x3eb8c5cd	0.3608841
13	0xbf55df24	-0.8354361
14	0x3f09fb96	0.53899515
15	0x3ee3b474	0.44473612
